================================================================================================================================================
FACE DETECTION
================================================================================================================================================
Model: "sequential"
_________________________________________________________________
Layer (type)                 Output Shape              Param #
=================================================================
conv2d (Conv2D)              (None, 48, 48, 32)        896
_________________________________________________________________
max_pooling2d_1 (MaxPooling2 (None, 24, 24, 32)        0
_________________________________________________________________
conv2d_1 (Conv2D)            (None, 22, 22, 64)        18496
_________________________________________________________________
max_pooling2d_2 (MaxPooling2 (None, 11, 11, 64)        0
_________________________________________________________________
flatten (Flatten)            (None, 7744)              0
_________________________________________________________________
dense (Dense)                (None, 2)                 15490
=================================================================
Total params: 34,882
Trainable params: 34,882
Non-trainable params: 0
_________________________________________________________________
Train on 25855 samples, validate on 10493 samples
Epoch 1/5
25855/25855 [==============================] - 29s 1ms/sample - loss: 0.0516 - accuracy: 0.9849 - val_loss: 0.1767 - val_accuracy: 0.9564
…
